agent.pth (torch_old, 28333 bytes, 6 tensors)

fc1.weight f4 [64, 37]
000000 4a 4a 5d 3c ab 96 84 bd 62 7d 80 be df 78 2f 3c
       0.013506481 -0.0647405 -0.2509566 0.01070997
000010 76 87 06 bf 59 2e 1d be 42 2e 82 be 8a 55 9d 3e
       -0.52550447 -0.15349711 -0.25425917 0.30729324
000020 56 1b 68 bd 4b a6 1c bf 59 55 49 bd 18 63 81 be
       -0.056666695 -0.6119124 -0.04915366 -0.25270915
000030 d6 0a 09 3e 48 15 ad bb 06 8b 00 3d 57 9a c5 bd
       0.1338304 -0.005282078 0.031382583 -0.096485786
000040 37 36 b4 3d 01 02 b7 bd ca 6c 78 be e6 a7 0e be
       0.08799403 -0.08935929 -0.2426025 -0.13931236
000050 44 5e a6 be 45 6d d2 bd f2 5f ca 3d cf 02 f5 bd
       -0.32493794 -0.10274748 0.09881581 -0.11963426
000060 41 5f f0 be 74 54 c2 3d e0 b5 e3 be c2 76 6f 3d
       -0.46947673 0.094887644 -0.44474697 0.058462866
000070 61 19 cd be 21 ed 81 bf 9d 9e 95 bd 57 25 3b be
       -0.40058425 -1.0150491 -0.07305644 -0.18275963
000080 d4 1c 18 3e ad 46 65 be be 3c 27 bf 41 51 49 bd
       0.14854747 -0.22390242 -0.6532706 -0.049149755
000090 08 57 79 3d 8a 3f 94 3d c9 63 2b 3e 40 c7 bf 3d
       0.060874015 0.072386816 0.16737284 0.09364176
0000a0 84 93 1a 3e 4f 28 be 3c 10 5f fb 3e b9 23 2a bf
       0.15095335 0.02321258 0.49095964 -0.6646076
0000b0 4d 8f 51 bf 53 80 c9 be f7 63 de bf 92 d1 bc 3d
       -0.81859285 -0.39355716 -1.7374257 0.0921966
0000c0 e2 51 c3 3c 9c 83 b1 3d 32 ce 78 3d bf d8 2a bc
       0.023842756 0.086676806 0.06074352 -0.010427653
0000d0 7f df 4a 3e 56 45 00 3e 0d c4 34 3e ba f4 1a 3e
       0.1981182 0.1252645 0.17652912 0.15132418
0000e0 6c 31 ee bc e6 7e 4f 3d a9 f7 8f 3d 4a 6e 0e 3e
       -0.0290763 0.05065813 0.07029659 0.1390926
0000f0 41 2e 89 3d c1 a8 09 3d 31 57 44 3e f6 86 22 3e
       0.06698275 0.033608202 0.19173886 0.15871796
000100 10 89 08 3e 0c 0f fd 3d 44 37 3d bc 83 38 a9 3d
       0.13333535 0.123563856 -0.011548821 0.08262732
000110 b9 dd 57 3d 28 00 e0 3d 19 42 ec 3d 1f fa 23 3d
       0.052701686 0.1093753 0.115360446 0.040033456
000120 85 60 1b 3c d8 28 cc 3b b1 15 b6 3e aa e6 8b be
       0.009483461 0.006230455 0.35563424 -0.2732442
000130 53 92 0c be 97 4c 2a bd 24 25 5f bd d6 ca ec 3d
       -0.13727693 -0.041576948 -0.05447878 0.115621254
000140 16 ff 04 bf c9 65 83 bd 80 bd 55 bd 54 8d ea 3d
       -0.5195173 -0.06415898 -0.052182674 0.114527375
000150 08 59 68 bc fa 4f 40 be f1 29 2a bd 3a 3d c7 3d
       -0.014181383 -0.18780509 -0.041543905 0.09728475
000160 4c d3 aa bc 3f f8 92 3e ee 74 3c bd cb 61 b1 be
       -0.020852707 0.28705022 -0.04600995 -0.34644923
000170 60 ef a0 be d2 74 7e be 7c 3f 03 bc ae a0 94 be
       -0.3143263 -0.24849251 -0.008010741 -0.2902884
000180 6c be 90 bd 20 3e 5f 3d bf dd 38 3e a1 3c 64 bd
       -0.0706757 0.054502606 0.1805334 -0.055721883
000190 94 4d ff bc 68 b8 c1 3d 51 98 70 bd 96 82 01 3e
       -0.031164922 0.09459001 -0.05873901 0.12647471
0001a0 93 d8 dd 3b 4e 0b d9 be 96 13 74 bc 69 50 6f bd
       0.0067702024 -0.42391437 -0.014897248 -0.058426294
0001b0 43 f1 96 3e 7f 6f 52 bc 20 6a dc 3c b9 dc 1f 3e
       0.29480943 -0.012843966 0.026906073 0.15611543
0001c0 ac 99 25 3e 32 9f 00 be 29 c3 11 3c 79 e5 95 3e
       0.16171902 -0.12560728 0.008896627 0.29276636
0001d0 d8 9a 5b be 3d 0b 4f 3e 11 38 ae 3d 7e a8 81 3e
       -0.21445787 0.20219131 0.085067876 0.25323862
0001e0 64 cd bc bd 87 2e fb 3d 5b 35 8a 3c b2 31 18 3e
       -0.09218863 0.12264734 0.016871145 0.14862707
0001f0 95 1a 8d 3c 50 6b aa bd ba e9 b0 bd 4b c5 9c bc
       0.01722459 -0.083212495 -0.0863833 -0.019137045
000200 13 1e 85 bd 9c 62 21 3e 10 e3 d6 bd 60 0a cb 3d
       -0.06499877 0.15760273 -0.104925275 0.09914088
000210 8f 75 4c 3e 65 ac 18 3d 9c 46 8e 3d 1d a8 8b bd
       0.1996672 0.037273783 0.069470614 -0.068191744
000220 75 2c 0a 3e 5c 95 67 3c 7d 0f 91 3d 8a 40 9b be
       0.13493522 0.014134731 0.07083032 -0.30322677
000230 de 5b aa be fa bc 80 bd c8 54 c9 3d 84 3d 53 3d
       -0.33273214 -0.062860444 0.09830624 0.051572338
000240 b5 bd 93 3d 6f 83 b1 be bb 6e 0e 3e 07 83 a8 bc
       0.07213918 -0.34670588 0.13909428 -0.020570291
000250 3e 6b ce 3d 8f 59 0f 3e 12 a7 66 3d 52 1a ca 3d
       0.100790486 0.13999008 0.056311674 0.098683015
000260 8c ac 2b bd d0 df d9 bd 6a bd f9 bd fb 54 04 be
       -0.0419126 -0.10638392 -0.12194331 -0.12923042
000270 0a 86 c2 bb ef ee 92 3d 03 2c d1 bb d1 2b b7 bc
       -0.005936389 0.07174479 -0.0063834204 -0.02235976
000280 8a 4e 79 3d 4c 82 8d 3d f4 59 83 3d 3a a3 69 3c
       0.060865916 0.06909618 0.064136416 0.014260108
000290 f3 3d 0d bc 48 34 bd 3c 6a 81 e3 3c 04 c8 4f bd
       -0.008620727 0.023096219 0.02777167 -0.05072786
0002a0 71 10 49 3e 54 a7 03 bf c9 36 ca be 31 42 7e be
       0.19635178 -0.514272 -0.39494923 -0.24829938
0002b0 f7 37 cf bf dd 05 eb 3d ce 3a bb 3d 6f d5 fa 3d
       -1.6188954 0.11475728 0.091420755 0.122477405
0002c0 0a 18 11 3e 8f 20 47 3c f0 9e e6 bc 26 4e 2c bc
       0.14169326 0.012153759 -0.02815196 -0.010516679
0002d0 3f 86 08 3d bb 03 40 3d d9 92 8f 3d 7d 05 09 ba
       0.033331152 0.046878558 0.07010431 -0.0005226953
0002e0 d0 71 09 3c 46 da a5 3e c2 e5 4b be c7 a0 50 be
       0.008388951 0.32393092 -0.19911864 -0.20373832
0002f0 22 ad 5d bd 62 e4 69 bf a1 8b 28 3e a1 99 db bd
       -0.05412019 -0.9136411 0.16459514 -0.10722662
000300 3a c3 d2 bd e9 ed 19 3e 12 39 5c 3b 5b e6 64 bd
       -0.10291143 0.15032162 0.0033603352 -0.055883747
000310 47 ac 1e 3e aa ee 0e ba 0b 93 28 3e aa 85 be bc
       0.15495406 -0.0005452434 0.16462342 -0.023257095
000320 45 b2 3f bd 52 90 52 3e 2b 60 88 bc cc fc f2 3d
       -0.04680087 0.20562866 -0.016647419 0.118646234
000330 45 27 7f 3e d3 40 37 3d d2 f6 44 bd 60 bd 24 3d
       0.24917324 0.044739556 -0.04808695 0.040219665
000340 bc 10 e3 3d 12 9d c6 bd db 0d b9 3d 3b 67 ee bd
       0.11087176 -0.096979275 0.09035846 -0.116407834
000350 f8 aa cc 3c 01 1a c3 3c 67 3a 92 3d 9f a7 cb 3d
       0.024983868 0.02381611 0.071400456 0.099440806
000360 be e1 2d 3e 06 08 75 3d cb f3 a7 3d 08 6b 20 3d
       0.16980645 0.059822105 0.08200797 0.039164573
000370 da 71 4e bd 44 de e4 bc 35 15 5d bd c4 1b 24 bd
       -0.050401546 -0.027938016 -0.053975303 -0.040065542
000380 6b a9 b9 bc 31 13 6d 3c 72 d2 5e 3d a7 8f c2 3e
       -0.022663793 0.014469908 0.054399915 0.38000223
000390 af b0 df 3d 0f b5 87 be dd 45 5c be 34 f5 3d bf
       0.109223716 -0.26505324 -0.21511026 -0.74202275
0003a0 fd 8d 93 3e bd 16 86 3d 7e c7 00 be 94 77 1b 3c
       0.28819266 0.06547306 -0.125761 0.009488959
0003b0 b4 08 ae be 2c ae d6 3d b9 3d e4 3d 15 b0 b6 3b
       -0.33991015 0.104824394 0.11144585 0.00557519
0003c0 b6 de fd 3c 52 27 c6 bd 5a 8e 72 3e 1a a2 f7 3c
       0.030989986 -0.096754685 0.23687115 0.030228663
0003d0 16 0c c4 bd c7 5c 4f be 91 0e a0 be 9b 39 95 3c
       -0.09572618 -0.20250235 -0.31261113 0.018215945
0003e0 53 5a c6 3a b4 ff 8a bc d2 99 71 3e 83 0c ff 3c
       0.001513312 -0.016967632 0.23593834 0.031133896
0003f0 45 48 3a 3e 22 50 0f be 57 55 cf 3b fa 30 28 3e
       0.18191631 -0.13995412 0.006327312 0.16424933

fc1.bias f4 [64]
000000 2a 69 78 3d f7 37 de 3c ab 1d 60 be 24 b6 3e bc
       0.060647167 0.027126295 -0.21886317 -0.011640105
000010 b3 a7 10 3e c4 0e 4d 3d c0 ec 01 3e 0e 0f 48 bd
       0.14126472 0.05006291 0.12687969 -0.048842482
000020 76 a5 27 bd 02 9f 4d 3c 2e fb 8a 3c 74 b3 22 be
       -0.04092928 0.012550117 0.016965475 -0.15888768
000030 49 93 0a be 28 a8 1d be 7a 10 0f bc 54 46 e8 3d
       -0.13532747 -0.15396178 -0.008731956 0.11341539
000040 62 d6 da 3d c4 87 12 be 17 cd e2 3d 2c b3 b1 bd
       0.106854215 -0.14309603 0.11074274 -0.086767524
000050 35 7f 7c 3c d4 33 c3 3d dc f2 97 bc c7 41 34 be
       0.015411188 0.0953137 -0.018548422 -0.17603217
000060 8d d6 b0 bd d3 bd 9e bc 42 7b 16 3d e5 2a c9 3b
       -0.08634672 -0.019377625 0.03673864 0.0061391466
000070 6b 68 17 bd 60 8d 8d bd c9 57 0a be 60 a9 cf bb
       -0.036964815 -0.06911731 -0.1351005 -0.0063373297
000080 43 ce 4a be 95 11 59 bc 06 26 74 3e 65 e7 29 3e
       -0.19805245 -0.013248821 0.2384263 0.16592176
000090 17 61 3a bb eb c0 c8 bd 86 2f 1b be 1f f1 01 3d
       -0.0028439218 -0.09802421 -0.15154848 0.03172409
0000a0 1e d0 f4 bd 11 4c 03 be 6c 46 0e 3e c2 48 23 3e
       -0.11953758 -0.12821986 0.13894051 0.15945724
0000b0 a7 48 81 bd bb 40 0d 3e 9f a5 27 3e 8e 63 19 bd
       -0.063126855 0.13794224 0.16371773 -0.03744846
0000c0 9e 88 c6 bd 45 e7 bf bd 1d f3 b9 bd 74 fe 40 3e
       -0.096940264 -0.09370283 -0.09079573 0.18847066
0000d0 34 bc 51 3d 69 dc 2a be 0d 67 67 be af 95 3e 3d
       0.051204875 -0.16685642 -0.22597905 0.04652947
0000e0 f8 cb 77 be 3a 4a 36 be b5 78 d9 3d fa 02 4e be
       -0.24198902 -0.17801753 0.10618726 -0.20118323
0000f0 7b 40 fe bc a7 83 1d 3e 99 7d a3 bd be 97 c5 3c
       -0.031036606 0.15382253 -0.0798294 0.024120208

fc2.weight f4 [64, 64]
000000 35 5f 3f 3c 60 c0 82 bb 31 44 08 3c 66 84 89 bd
       0.011680414 -0.003990218 0.008317039 -0.06714706
000010 54 16 19 be 18 75 1e 3e bb 94 57 be a4 95 3d 3c
       -0.14949924 0.15474355 -0.2105283 0.011571322
000020 c1 a3 f1 bd 24 69 98 3e 34 e1 ae 3d 20 0f 48 3c
       -0.11798812 0.29767716 0.08539048 0.012210637
000030 bf 11 d2 bc e1 f3 96 3e 18 5a 84 bd de 41 63 3e
       -0.025643228 0.2948294 -0.064624965 0.22193095
000040 71 c8 0f 3e cc 2f e8 3e 39 53 e6 3b b9 97 c5 bb
       0.14041306 0.45348966 0.007028964 -0.0060300496
000050 28 21 7f be 54 23 14 3e 50 a1 4c be 70 61 bf 3e
       -0.24914992 0.14466602 -0.19983411 0.37379026
000060 8a 4f b9 be 1b 8f a3 bd f0 d1 4b bd fa 89 8c 3d
       -0.36193496 -0.079862796 -0.04976076 0.068622544
000070 38 3c 0f bc de 94 1b be b9 63 3d bd 62 fc 87 bd
       -0.008742385 -0.15193507 -0.04623768 -0.06639935
000080 06 6d 26 3e 25 7b 04 3e fa 9e c8 3d ce a1 0e be
       0.16252527 0.12937601 0.097959474 -0.13928911
000090 8e 90 e9 bd bd 90 23 be 22 23 eb be 76 9a 1b be
       -0.11404525 -0.15973182 -0.45925242 -0.15195641
0000a0 60 61 cb 3d 1b d7 7e bd 60 96 89 bb 50 f5 b3 be
       0.09930682 -0.06221686 -0.0041988343 -0.35148096
0000b0 c3 5e e1 3c e1 ec 2e be b6 ed ae bd e4 1a 9e 3d
       0.027511006 -0.1708255 -0.085414335 0.07719973
0000c0 b2 31 94 be 51 e7 2c 3e e5 14 b0 be 8a 95 b0 3e
       -0.28944165 0.16885115 -0.3439094 0.3448909
0000d0 72 d5 40 be 51 79 4e be 9d ec 80 3d 81 5f 23 be
       -0.18831423 -0.20163466 0.062951304 -0.159544
0000e0 66 fe 48 3e 8a 65 5f 3d fb bb 16 bd de 94 56 3e
       0.19628295 0.054540195 -0.036800366 0.20955226
0000f0 f9 fb 83 be 81 61 91 3d 9f 9b ea bc a1 52 c5 3d
       -0.25778177 0.070986755 -0.028638659 0.09634901
000100 14 32 c9 3d a1 df 8b be 77 1c a4 bd 33 2b 1e 3e
       0.09824005 -0.27319053 -0.08013242 0.15446167
000110 0f 52 b0 3e c5 02 06 3e 24 5d 1e 3e 3c 30 bd bc
       0.34437606 0.13086994 0.15465218 -0.023094289
000120 96 d4 06 3e 97 c8 a1 3e a5 de 28 3e b1 df 92 3e
       0.13167033 0.3159835 0.16491182 0.28686288
000130 9d 56 bd 3c 78 2e b9 bc 9d f0 f3 bd b2 78 24 3d
       0.02311259 -0.022605166 -0.11911128 0.040154167
000140 06 dd b3 bd e4 3b 81 be 3e 15 1e be 01 04 0b be
       -0.08782391 -0.25241005 -0.15437791 -0.13575746
000150 27 f4 09 3e 21 9c e8 be 91 50 3a 3e 53 a4 39 bd
       0.13472043 -0.45431617 0.18194796 -0.045322727
000160 23 d1 61 be e1 91 ab 3c c5 6a 53 3e 9e 3e 88 3d
       -0.22052436 0.020943584 0.20646198 0.06652568
000170 bf bb aa bd 64 d6 12 be 17 12 c1 bd 55 f0 7c be
       -0.08336591 -0.14339596 -0.094272785 -0.24701054
000180 1b 53 2f 3d 47 6d 11 3e 11 8f a7 3d 84 ac 1b bf
       0.042803865 0.14201842 0.081815846 -0.6081011
000190 c4 dd 23 3e 1a 17 de 3d fc 1c c1 3d 4c 35 19 be
       0.16002566 0.1084425 0.094293565 -0.14961737
0001a0 34 f8 37 bd 62 a6 cf bc 6b d5 23 bf 42 35 23 bd
       -0.04491444 -0.025347892 -0.63997525 -0.039845712
0001b0 c2 62 24 3b d6 b6 6d 3e fb 63 4d bd ff 3f 5d bd
       0.0025083278 0.23214278 -0.050144177 -0.05401611
0001c0 89 e6 12 3d 34 c3 e3 3c 18 e4 e1 3c a8 97 dd 3d
       0.035864387 0.027803041 0.027574584 0.10819942
0001d0 61 93 16 3e 0a 19 4b 3e 03 38 0a bf 31 10 25 bd
       0.14704658 0.1983377 -0.5399172 -0.040298644
0001e0 83 02 24 3d 57 ad 1d 3d 9f 28 55 3c 78 5b 75 3e
       0.040041458 0.038495388 0.013010173 0.23960674
0001f0 e5 dd f3 bd c5 b5 19 be ff a9 3b 3e b8 5a 92 3e
       -0.119075574 -0.15010746 0.18326567 0.28584838
000200 f6 3d f4 3c 23 d1 00 be 7e 19 05 bd cf c5 41 be
       0.029814702 -0.1257978 -0.032495014 -0.18923114
000210 fa 1e 10 be 6c 7f 4e be 9d 42 9d be 41 16 cf bd
       -0.14074317 -0.20165795 -0.30714884 -0.101116665
000220 51 8c 99 be 57 bf 94 be 12 57 cf 3b 72 07 9e bd
       -0.29989865 -0.2905223 0.0063275183 -0.07716264
000230 aa 3d 94 bd ed 8c 7b 3d 5d 42 13 3e bf d3 89 be
       -0.07238324 0.061413694 0.14380784 -0.26919362
000240 2a 60 36 3d 6d 6f 28 3e ca 2b 09 be 68 05 48 bd
       0.044525303 0.16448756 -0.1339561 -0.04883328
000250 ed 07 6d be e0 eb a7 3c 12 d1 82 3e 75 a1 b5 3b
       -0.23147555 0.020498216 0.25550133 0.005542929
000260 d3 f0 7b 3e 9a dc 70 be ea db 31 3e e7 e1 c7 3e
       0.24603586 -0.23521653 0.17369047 0.39039537
000270 9b 3f 7e 3e b2 c9 52 be 24 1e 90 be 9e c5 4a bd
       0.24828951 -0.20584753 -0.28147995 -0.04950487
000280 32 02 bf bd 26 ae 97 bd 12 2d d3 bd 8b e2 e0 3d
       -0.093265906 -0.07406263 -0.10311331 0.1098071
000290 ba f6 c7 bd f0 d6 81 3e bf 7d fc bc 93 f0 dc bd
       -0.09763856 0.25359297 -0.03082168 -0.107880734
0002a0 fa 72 bb be 3d 32 9b be 1f 70 6c 3d 5d dd 52 3d
       -0.36611158 -0.30311766 0.057724115 0.05148064
0002b0 9a 51 b1 3d fd 3d 0a be 6f 4d b3 3d 47 7c de bb
       0.086581424 -0.13500209 0.08755004 -0.0067897174
0002c0 c1 43 6c 3d c7 a7 a3 be f2 7e 81 3c 48 78 20 3e
       0.057681803 -0.3196394 0.015807603 0.15670884
0002d0 fd ab 56 3d 1d f7 37 bd cb 6e 63 be f0 f1 2e be
       0.052410115 -0.0449134 -0.22210233 -0.1708448
0002e0 bf a4 93 bc 9b 4d 97 bd 5a 0b 35 3b ef 22 38 bc
       -0.018022893 -0.07387849 0.0027625174 -0.011238798
0002f0 5a 62 2e be 75 d6 20 be d8 b1 9d 3d 38 88 bb bd
       -0.17029706 -0.15706809 0.07699937 -0.09156841
000300 51 33 e5 bb 2e cb b8 3c fe b9 34 3c 5b 39 58 3e
       -0.006994643 0.022557821 0.011030672 0.2111563
000310 d7 74 14 3e 22 4c 41 be ec 01 99 3c d4 a8 91 3d
       0.14497696 -0.18876699 0.018677674 0.071122795
000320 f2 af ac be f2 0a a9 bc d3 38 af be b4 8f a5 3d
       -0.33727986 -0.020635102 -0.3422304 0.0808405
000330 db f7 9d be bf 2d 36 3d 40 b6 29 3f 22 cc 67 3d
       -0.3085316 0.04447722 0.66293716 0.05659116
000340 c5 85 8d bd 78 2b 80 3d 97 b5 02 3e 2c 27 9f 3d
       -0.0691028 0.06258291 0.12764584 0.07771143
000350 6a 6e 5d be b5 e9 24 be c8 8b 90 be 0b 16 d6 3c
       -0.21624151 -0.16104777 -0.28231645 0.026133558
000360 40 78 58 be 1d 5a 17 be 45 6d a9 3d cc 2c e5 bd
       -0.21139622 -0.14780469 0.08272795 -0.11190185
000370 98 c3 e3 3d 0e 35 d2 3d 3e 00 5c be 0e e0 3d be
       0.11121291 0.10264026 -0.21484467 -0.18542501
000380 5a 79 79 be d0 2d 8f bd a2 05 0a 3d c6 10 67 be
       -0.24362698 -0.0699116 0.033696778 -0.22564992
000390 6f 29 00 be 73 e8 0e be 8f 46 19 be 67 9d 31 be
       -0.12515806 -0.1395586 -0.14968322 -0.173452
0003a0 4a 30 9f bd 0a e7 97 3d 4b 93 97 be 13 09 31 3d
       -0.07772882 0.07417114 -0.29604563 0.043221544
0003b0 de 6f d0 3d a9 6b 73 be 7f 1b e0 3d 1d da 30 3e
       0.10177587 -0.23771538 0.109427445 0.17270704
0003c0 d6 47 af bc 4e d9 26 be c1 65 88 be 37 5e b9 bc
       -0.021396559 -0.16293833 -0.26640132 -0.022627933
0003d0 90 e0 b0 bc 1e 25 1c be 43 d6 37 be a0 5d 44 3e
       -0.021591455 -0.15248534 -0.17952828 0.1917634
0003e0 12 72 41 bc 43 fa 0a 3e 75 16 9e 3d a3 18 80 bd
       -0.011806982 0.1357203 0.07719127 -0.06254699
0003f0 7b d3 ba 3e 57 30 30 bc 1a 80 c0 bc 48 d5 85 bc
       0.36489472 -0.010753713 -0.023498584 -0.016337052

fc2.bias f4 [64]
000000 ee cd 14 be 3b 5a 2d 3d 60 5d 24 3d 60 50 aa 3c
       -0.14531681 0.04232238 0.04012811 0.020790279
000010 8b d9 dc bc 29 74 4e 3e 68 07 4c 3c 6f e4 c7 3d
       -0.026959201 0.20161499 0.012452938 0.09760367
000020 62 27 0a bc 9c 71 00 be 30 3f f2 bd 6e f8 47 3e
       -0.008432241 -0.12543339 -0.11828458 0.19528362
000030 ea 93 f2 bc f2 d3 14 be aa 7f 8f ba f0 ce b9 bd
       -0.029611547 -0.14533976 -0.0010948081 -0.09072673
000040 ce 07 f6 bc cd 67 2a 3e 75 be 04 3e c5 1a ab 3d
       -0.030033018 0.1664116 0.12963279 0.08354715
000050 3c 04 c1 bd 8e 7c 08 be d0 5e 32 bc 2a 0d 94 bc
       -0.09424636 -0.13328764 -0.010886863 -0.018072683
000060 e5 25 c7 3d 95 66 88 3e 2b 0b 28 3c 5a 1d 11 bd
       0.09724025 0.26640764 0.010256569 -0.035428382
000070 4e fc 1e be a9 93 3a bd 45 0f 8e 3e 52 8a 07 3e
       -0.15525934 -0.045550976 0.27746025 0.13236359
000080 1e 4c 8f 3d 97 c4 71 3e 65 d9 ff 3e d1 41 93 3c
       0.0699694 0.2361015 0.49970546 0.01797572
000090 64 8c c3 bd 30 dd 15 bd b8 5c 0c be 10 7d 0e be
       -0.09548262 -0.036587894 -0.13707244 -0.13914895
0000a0 21 cd 79 3e 30 fe 9d be b8 a4 d6 3c bf e8 ba 3e
       0.24394657 -0.30857992 0.02620159 0.36505696
0000b0 72 6f a2 3d ec c7 da 3d ae 17 ea 3e e7 29 1b 3e
       0.07931413 0.10682663 0.4572119 0.15152703
0000c0 0c c9 91 3a 7f c5 7d 3d 8c 1c 06 be 47 44 8e 3e
       0.0011122539 0.061955925 -0.13096827 0.27786466
0000d0 6d 5f 21 3c d8 6d f4 3d 83 10 30 bd 85 94 b3 bd
       0.009849411 0.119350135 -0.042984497 -0.08768562
0000e0 86 85 ef 3e 3c c9 69 be b9 9f 71 3e cd 85 85 bc
       0.46781558 -0.22830671 0.23596086 -0.016299153
0000f0 33 0b 4f 3e cd 14 e9 3d b6 f4 97 3d 6d 41 45 3d
       0.20219116 0.113809206 0.07419722 0.048158098

fc3.weight f4 [4, 64]
000000 2f aa 8e be 24 8a d1 bd 99 17 c7 3d 8f 52 02 3d
       -0.27864215 -0.10231426 0.09721298 0.031817015
000010 ae fb cd be d9 1e fd 3d 90 6f c8 bc 67 09 bf 3e
       -0.4023108 0.12359399 -0.02446726 0.3731186
000020 2c ab 03 be d2 da 86 be bb 94 4e 3b 55 ab 8c 3d
       -0.12858266 -0.26338822 0.0031521756 0.068686165
000030 87 92 9d be 3a 53 db 3d 04 fc e1 ba ad 61 c6 be
       -0.30775854 0.107092336 -0.0017241244 -0.38746396
000040 39 6a 8a bc 98 28 f4 3d 5b 25 04 3f 8c e9 26 3e
       -0.016896354 0.11921805 0.516195 0.16300029
000050 9c 4d 19 be df be f8 bd b8 e9 c3 bd cf 05 89 be
       -0.14971012 -0.12145781 -0.09566063 -0.26762244
000060 e3 c1 35 3e 75 a6 f1 3d 20 db ee bd dd 74 94 bd
       0.17749743 0.11799327 -0.116628885 -0.072488524
000070 ce fe 0f be 62 f9 5b be 7c c9 b5 3d 17 b4 16 3f
       -0.14062044 -0.2148185 0.08876321 0.58868545
000080 31 5b a5 3d b9 ba 86 3d ab 86 2f 3e c2 7f ad be
       0.08074034 0.06578583 0.17141216 -0.33886534
000090 eb 2b a1 3b f9 38 ce bd 0f c6 f7 be 05 35 a5 bd
       0.0049185655 -0.100694604 -0.48393294 -0.08066753
0000a0 5c 0c b9 3d df f6 97 be 05 cf 4e be 71 17 59 3e
       0.090355605 -0.29680535 -0.20196159 0.21200348
0000b0 cf 41 53 3d 77 b0 35 3e 8c 53 5c 3e 0b 6f bb 3d
       0.05157643 0.17743097 0.21516246 0.09152039
0000c0 8b 5c 0e 3e e6 51 db be a0 f0 fc bd 8f e5 59 3d
       0.1390249 -0.4283592 -0.12350583 0.05319744
0000d0 a0 cc 5b be 2d 2b 4b 3d 8e 99 c4 3d ef 15 d7 3c
       -0.21464777 0.049601723 0.09599601 0.026255576
0000e0 86 9e 54 3e e1 2e b0 3b 4e 59 ea 3d 46 34 36 3d
       0.20763597 0.005376682 0.11442815 0.044483446
0000f0 ae 99 2d 3e ca 83 01 3e 75 d9 1d 3d 7e 7a 7c be
       0.16953155 0.1264793 0.03853746 -0.24656102
000100 c7 d9 8c bd df 89 f9 3c 4f b2 77 3e b0 7b ed 3d
       -0.06877475 0.03046125 0.24189113 0.11595857
000110 04 24 fa bd 6d 8a 8a 3d 97 23 3b be de 58 bc 3e
       -0.12213901 0.06764684 -0.18275295 0.3678655
000120 c4 3e e0 bd ac 2f 89 3d d6 35 eb 3d 55 a0 9e 3d
       -0.109494716 0.06698546 0.11484878 0.07745425
000130 29 f3 ce bd 15 cc bb 3c 80 1a c4 bb 56 18 29 3e
       -0.10104973 0.022924462 -0.0059846044 0.1651319
000140 26 38 03 bd 8f 44 37 3e ce ba bd 3e 20 d7 1f 3e
       -0.03203597 0.17897247 0.37056583 0.15609407
000150 0f 9b 53 bd 86 dc 51 be 47 2a c7 bd 37 22 4c be
       -0.051661547 -0.2049428 -0.09724861 -0.19934927
000160 31 c2 79 3d b7 9e 9f 3e c2 4f 48 be 71 52 5d bc
       0.06097621 0.31175777 -0.19561675 -0.013508425
000170 bd 5c 50 b9 ff 89 fb 3d 11 90 4a 3e f5 fe a5 3e
       -0.00019870973 0.1228218 0.1978152 0.3242108
000180 98 88 a7 3c fc 6b 12 3e 65 dd 45 3e fa 11 ba 3d
       0.020450875 0.14299005 0.19322737 0.0908546
000190 41 0c 27 be 73 41 6a be 13 ee 0d 3e 2b 77 d8 3d
       -0.16313268 -0.2287653 0.1386035 0.105696045
0001a0 44 ac 18 3e 5a a9 ee bc f2 70 46 3d 87 c6 64 3e
       0.14909464 -0.029133487 0.048447557 0.22341357
0001b0 94 35 5b bc 66 17 9e 3e 53 1f 3f 3e dc 94 a0 3d
       -0.013379473 0.30877227 0.18664293 0.07840893
0001c0 29 7a 41 3e 75 57 b3 bd a1 50 52 be 51 08 a2 3d
       0.18894257 -0.087569155 -0.2053857 0.079117425
0001d0 00 e6 2f 3e 30 a8 ac 3d 2a eb 1d be fb 00 1c bd
       0.17177582 0.08430517 -0.15421739 -0.038086873
0001e0 b4 7d c6 3d df 98 58 bd 4a 6d 0b 3d 49 32 2c 3e
       0.09691945 -0.052880164 0.034039773 0.16816057
0001f0 8c 50 da 3d 52 e5 11 be b2 f3 b5 3d 54 60 93 3d
       0.10659894 -0.14247635 0.08884372 0.071961075
000200 ab 29 c6 be 78 7b 5e 3e 73 2c 5c 3d 09 fa 11 bb
       -0.38703665 0.21726787 0.053753328 -0.0022274277
000210 db da ea bc 72 9d 5c 3d 6f 97 b5 be b0 f6 cd 3e
       -0.028668812 0.05386109 -0.35467097 0.4022727
000220 bb 6c 6f be a9 ee 45 be 44 19 68 3e bb 4e 72 3e
       -0.23381321 -0.19329323 0.22665888 0.23662846
000230 0a fa 08 bc 0e d9 7f 3c fd 35 18 be 24 a1 98 be
       -0.008360395 0.015615715 -0.14864345 -0.2981044
000240 0b af 0d 3f 34 85 34 bd f8 9b cd 3e 41 4d da 3d
       0.5534522 -0.044072345 0.40158057 0.10659266
000250 72 7b e9 3c 1d 1c 3d be 98 d2 63 3e 4c 85 59 be
       0.028501246 -0.18467756 0.22248304 -0.21242255
000260 f2 a0 91 be a6 c1 8e 3e 73 fc 28 bb 7e 30 3e 3e
       -0.28443104 0.27882117 -0.0025785237 0.18573186
000270 bd 12 99 3e be 9f 85 3d 2d 47 fc 3d bc a1 c7 3d
       0.2989711 0.06524609 0.12318263 0.09747645
000280 ba 7d d5 be f7 5c 30 3e 47 3f 6b 3e 9e af 18 bd
       -0.41697484 0.17222963 0.22973357 -0.037276857
000290 ef d7 75 3d 3e 51 a0 bd 4c 99 59 be 89 8b 81 be
       0.060020383 -0.07827996 -0.21249884 -0.2530177
0002a0 68 1c 4f 3e 25 b6 8a bc d5 cb 34 be bd 48 13 3e
       0.2022568 -0.016932556 -0.17655881 0.14383216
0002b0 2c b6 b9 3e 2c 80 07 3c 96 d9 0f 3e 32 d9 1a 3e
       0.362718 0.008270305 0.14047846 0.15121916
0002c0 e6 88 0d 3f 44 8a 97 bd 86 25 59 be ca 39 53 3e
       0.55287015 -0.07399419 -0.2120572 0.20627514
0002d0 63 bd 02 3d 75 c3 9e 3e b5 71 ff bc 07 cd 04 bf
       0.031918894 0.31008497 -0.03118215 -0.51875347
0002e0 99 6c 6c 3e e7 03 63 3e e4 75 cb 3c 36 5b a7 be
       0.23088302 0.22169457 0.024836488 -0.32686776
0002f0 0b 7a 63 be 23 8f 48 3d 28 6c 5f 3e 67 56 55 3e
       -0.22214524 0.04896463 0.21818602 0.20833741
000300 01 36 63 be b2 1a a9 3d a2 53 c0 be e6 e1 86 3e
       -0.2218857 0.08257045 -0.37563807 0.26344222
000310 80 a3 5e be ee 86 ab 3e 94 23 c9 bd 54 f4 bc 3d
       -0.21742058 0.3350138 -0.09821239 0.092262894
000320 4f 95 d0 bb 74 1a 97 be 0d 65 b8 be 6f 42 9d 3b
       -0.006365455 -0.2951237 -0.36014596 0.0047991793
000330 78 50 95 3c 7f a3 4e 3d a6 2a 0c bc 2a 18 c3 bd
       0.018226847 0.05044889 -0.00855509 -0.09526093
000340 9b a2 3d be 35 50 ce 3d 10 27 52 bd 78 95 cd 3d
       -0.1851906 0.10073892 -0.051306784 0.100382745
000350 a8 98 3c 3e c3 0d c0 be 0a 5b b8 be 5b 8a d4 3e
       0.18417609 -0.375105 -0.36006957 0.41511807
000360 9a 58 18 3e f2 cd d4 3e 60 cf 85 bd f6 be 0c 3d
       0.14877549 0.41563374 -0.06533694 0.034361802
000370 f5 b2 40 3e 44 f6 9e 3e 38 b8 a6 3e ec ee b1 3e
       0.18818267 0.3104726 0.32562423 0.34752595
000380 d2 1a de be ef a3 10 be 42 2f 33 3e 1d 55 89 be
       -0.43379837 -0.14125036 0.17498496 -0.2682275
000390 b2 af 81 3d 6a 35 ba be da 74 30 bc 0a 19 ab be
       0.06332339 -0.36368877 -0.010770047 -0.3341754
0003a0 38 56 98 3e e4 5e 97 be ad ad 11 bf 17 97 e7 3d
       0.2975328 -0.29564583 -0.56905633 0.11308115
0003b0 94 28 40 3d 76 ad 8e be de 44 23 3e b1 44 3b 3e
       0.0469137 -0.27866715 0.1594424 0.18287922
0003c0 7a 2b 94 3e 36 fd 2f be cb 11 64 be 41 b7 85 3e
       0.2893942 -0.17186436 -0.22272412 0.26116374
0003d0 65 07 ac 3e 01 eb d8 bd 4e 4a 80 be 36 6e 0a 3e
       0.33599392 -0.105916984 -0.2505669 0.13518605
0003e0 9b 63 1b 3e 17 55 51 3e 42 fb 59 3e 3e 57 e2 3d
       0.15174715 0.20442615 0.21287253 0.110517964
0003f0 71 c8 81 3e f5 22 ea 3e 64 29 c6 3e ee f1 b0 be
       0.25348237 0.45729795 0.38703454 -0.34559578

fc3.bias f4 [4]
000000 08 04 ef 3e e7 3d 73 3e 19 b6 64 3e 7e d5 bc 3e
       0.46682763 0.23754083 0.2233509 0.36881632
